口罩佩戴检查/temp.pth (torch_old, 15894 bytes, 12 tensors)

mobilebone.0.0.weight f4 [32, 3, 3, 3]
000000 90 3e 0a 3d d3 2a a3 bd c3 be b5 3c a8 13 88 3d
       0.03375107 -0.079671524 0.022185689 0.06644374
000010 f8 35 94 bd 9d 33 02 3b 61 15 6f bc 86 8c 4f 3c
       -0.07236856 0.001986719 -0.0145924995 0.012667781
000020 b7 94 dc bc a8 40 bb bd 51 a1 31 3d be b2 53 be
       -0.026926382 -0.091431916 0.043366734 -0.20673653
000030 61 1c fd bd ed 1b 03 3d 4c 25 96 3d 0b f7 0d bd
       -0.123589285 0.032009054 0.073313326 -0.034659427
000040 01 1a 8c 3d f4 43 75 3d 5e 3e 97 be d8 05 fa bd
       0.06840897 0.05987926 -0.2953977 -0.12208146
000050 e5 ca f9 bd 99 ec 83 bc 6d 81 7e bd 46 a5 02 3e
       -0.12196902 -0.01610403 -0.06213515 0.1275836
000060 53 bf 91 bc f2 12 36 bd b3 d7 f6 bb 52 b9 1e be
       -0.017791426 -0.04445166 -0.0075330376 -0.15500382
000070 cf b4 4b 3d b5 42 e5 bd 8c b9 02 3c 87 3b 70 3e
       0.04973298 -0.11194364 0.007978808 0.23460208
000080 90 d2 53 3d 5a d8 bf bd 96 e7 1d 3e c9 f4 0e be
       0.05171448 -0.09367438 0.15420374 -0.13960566
000090 24 2f 43 3e 2c c1 91 bd ac 12 2c be b6 bc 17 3e
       0.19060951 -0.07116923 -0.16803998 0.14818081
0000a0 09 6c 2c 3e 72 82 4f 3e 66 b1 4e 3d 8b ff f0 3d
       0.16838087 0.20264605 0.05046215 0.11767491
0000b0 48 da a4 3e a6 fc ff bc 10 fa 85 3d bb 77 ac 3c
       0.32197785 -0.031248402 0.06541836 0.021053186
0000c0 7c 44 cc bd 2e ae bb 3d 67 5d 98 bd 8c dc c8 3d
       -0.09974 0.091640815 -0.0743969 0.09807691
0000d0 dd aa a4 3d bb 9d 86 bd 0b 98 ba b9 ac 4e 87 3d
       0.08040402 -0.065730534 -0.00035589965 0.06606802
0000e0 15 28 05 bb a9 cf ec bc c4 ea 41 3d b9 53 5a bd
       -0.002031808 -0.028907614 0.04734303 -0.0533025
0000f0 a1 fe 1e bd 9d 74 50 bd 4d be 47 bc db 61 52 bb
       -0.03881705 -0.05089246 -0.012191367 -0.0032101783
000100 88 da 0f 3c c1 1d d6 3d 73 05 3c 3e 04 a0 9f 3d
       0.008780129 0.10454894 0.18361454 0.077941924
000110 2c ce dd 3d ab ae 55 3d 8a b9 06 3e 28 40 c8 3d
       0.1083034 0.05216853 0.13156715 0.09777862
000120 c3 a7 10 3e bf 7f 01 3e ed 56 48 be 92 67 86 bd
       0.14126496 0.12646388 -0.1956441 -0.06562723
000130 09 13 9e 3d 9f 69 c7 bd 8e 0f a2 bc 5b d4 3b bc
       0.077184744 -0.097369425 -0.019782808 -0.011464204
000140 3a 0f 25 bc 14 29 97 bd 3d 5a b6 bd f7 b9 a2 3d
       -0.010074431 -0.07380882 -0.0890393 0.07945626
000150 90 cb 40 be 10 d4 8c bd 8e b6 b6 bd 16 cd b1 bd
       -0.18827653 -0.06876385 -0.08921538 -0.08681695
000160 a6 09 80 bd 44 5c 59 3c c9 b3 1d bc 41 f9 60 bb
       -0.0625184 0.013266627 -0.009625384 -0.0034328254
000170 e2 91 46 bc 15 60 1d ba 1e 51 e5 bc 27 8c 0a 3e
       -0.012119742 -0.0006003392 -0.027992781 0.13530026
000180 63 c4 07 3e 63 51 5a bc e1 d9 1b be 8a 9b d9 3d
       0.1325851 -0.013325068 -0.15219833 0.1062537
000190 f8 21 1d 3e 91 f8 3e 3e 8a e9 94 3c ba a6 70 3d
       0.1534499 0.18649508 0.018177766 0.058752753
0001a0 49 2a 10 3e 40 f5 a3 3c 88 3e ee bd f2 c6 01 bd
       0.1407863 0.020014405 -0.11633021 -0.03168387
0001b0 e3 ee 07 bd 32 ac f7 3d 20 b7 e5 bc 52 73 6a 3d
       -0.033186805 0.120933905 -0.028041422 0.057238884
0001c0 b4 fd 89 3d fd 4f 5c 3d 8e d0 f4 bc ea 73 8a 3d
       0.06737843 0.05378722 -0.029884603 0.0676039
0001d0 6c b8 30 bd 3b ef cd bd 80 64 e7 bd aa ff 6d 3d
       -0.04314463 -0.10055395 -0.11298466 0.05810515
0001e0 8b f5 03 bb c1 11 16 be ad a6 8d bd 96 1c 43 3c
       -0.0020135369 -0.1465521 -0.069165565 0.011908671
0001f0 c4 d1 4b bb 31 12 a6 3c d6 91 19 3d d0 22 0c bc
       -0.0031100372 0.020272346 0.037492596 -0.008553222
000200 ad 1a b6 3d 68 e6 0c 3e 6f e0 39 bd c3 35 98 3d
       0.08891807 0.13759768 -0.045380052 0.07432129
000210 59 9a 0c 3e 4a b2 4e 3e 36 65 fc 3c 47 fb ae 3d
       0.13730754 0.201852 0.03080998 0.08544021
000220 7e d0 42 bd 5c c5 03 bb 16 a2 b3 3d 43 d6 48 3e
       -0.047562115 -0.002010665 0.0877115 0.19612984
000230 2f 87 12 3e 70 3d b6 3d 1c 32 84 3d 64 75 c8 3d
       0.14309381 0.08898437 0.0645487 0.097880155
000240 5a b7 3c be b4 9f 13 3d 67 13 4b be 85 89 3e bd
       -0.18429318 0.036040977 -0.1983162 -0.046517868
000250 54 3d cc bd 9f f1 08 3d d2 8c 9d 3c f2 0c 1c 3d
       -0.09972635 0.033433553 0.019232187 0.038098283
000260 db 97 dd 3c db a2 90 3d af d3 36 3c c9 e1 35 bd
       0.02704995 0.07062312 0.011158868 -0.04440478
000270 85 c4 8e 3c 72 62 2b be 70 73 a5 bd f0 36 c8 bc
       0.017427692 -0.16736773 -0.080786586 -0.024440259
000280 6c c1 6b bd 5a a8 af 3d b8 29 1d bd 5a 03 17 be
       -0.05755751 0.085770324 -0.038369864 -0.14747372
000290 f4 62 3e be 27 d2 0a bc a7 6a 0d be 8c b6 1f bb
       -0.18592435 -0.008472956 -0.13810216 -0.002437028
0002a0 fb b5 e6 3c f5 af 4d bd 45 e7 55 bc 1c ff b0 bd
       0.028162947 -0.050216634 -0.013055627 -0.08642408
0002b0 f7 28 98 3d 96 20 fa bc 4b bf 64 3c 64 4c bf 3d
       0.074296884 -0.030533116 0.013961623 0.09340742
0002c0 28 cc c2 bd 86 e0 0c be 27 91 89 3c 9b 94 80 bc
       -0.09511596 -0.13757524 0.016792847 -0.01569586
0002d0 45 e9 25 bd a4 62 03 3e c7 c1 ca 3d 75 99 da bd
       -0.040505666 0.12830597 0.09900241 -0.10673801
0002e0 f6 3e ad 3c c2 13 81 3d a3 aa bc 3c da bc 10 3e
       0.021148186 0.06302597 0.023030585 0.14134541
0002f0 d4 a7 1b 3e b6 38 c0 bc 7a da fa 3d 52 83 16 be
       0.1520074 -0.023464542 0.12248702 -0.14698532
000300 a3 96 50 bc 10 21 20 3e 52 3e 01 3e 40 8b ad bd
       -0.012731227 0.15637612 0.1262143 -0.084738255
000310 fe 0e 4a 3d 1f 8b 9c 3d 92 f1 b2 3b fb 50 d8 bd
       0.049330704 0.07643723 0.0054609263 -0.10562321
000320 c5 5e e1 bd 66 11 e8 b9 22 70 45 bc 35 7d 34 3d
       -0.11004404 -0.0004426345 -0.01205066 0.04406472
000330 d4 1d 71 3e 11 f4 94 bc 01 04 68 bb 99 00 a3 3d
       0.23546535 -0.018182786 -0.0035402777 0.07959098
000340 32 c7 52 bd 49 b7 14 3a 48 6b d8 3d e9 b8 96 bd
       -0.0514595 0.00056730636 0.10567337 -0.073594876
000350 b2 da ac bc 08 f5 9e 3d ec 0a c2 3d 35 18 75 3d
       -0.021100376 0.0776158 0.094747394 0.05983754
000360 6e 6a f0 3d ef 87 29 bc 33 5b 46 3e 80 9f ff bc
       0.1173905 -0.0103473505 0.19370727 -0.031203985
000370 2f 61 84 3d 80 62 92 bd 84 f1 b9 3d f9 62 0d 3d
       0.06463849 -0.07147694 0.090792686 0.034518216
000380 3b 9a 0c bd 63 f8 7d 3d b7 3e cc bc ca f8 17 bd
       -0.034326773 0.06200446 -0.024932249 -0.037102498
000390 c2 90 3f bd 17 10 8c 3c 61 23 44 3d 9e ed 84 3d
       -0.04676891 0.017097516 0.047885302 0.064906344
0003a0 e1 06 76 bd 8b 9d 31 3d 7b ab ad bd 80 e2 70 3d
       -0.060065154 0.043363135 -0.08479973 0.058809757
0003b0 64 e7 9f bc ea 09 fe 3c 44 5a dd bc eb 7f 2b bd
       -0.019519515 0.031010587 -0.027020581 -0.04187004
0003c0 e0 37 3c be 06 95 83 be 48 ee 87 bd dc e6 7f 3d
       -0.1838069 -0.25699633 -0.066372454 0.062476024
0003d0 1a fb 16 bd 73 00 78 3d 9d b6 6e 3d 5f 06 c1 bd
       -0.036860563 0.060547303 0.058279622 -0.09425043
0003e0 4f fd d8 bc 4f dd 6e 3d 8b 61 9d bd 4d 76 07 3e
       -0.026487974 0.058316525 -0.076846205 0.13228722
0003f0 de 1b b1 bc 33 9f a8 3d 00 02 08 3e 65 d0 78 bd
       -0.021619733 0.0823349 0.13282013 -0.060745616

mobilebone.0.1.weight f4 [32]
000000 c1 02 6e 3f 51 b3 7a 3f e7 01 71 3f ba 96 8a 3f
       0.9297295 0.97929865 0.9414353 1.0827248
000010 11 0e 78 3f 56 8d 89 3f a8 21 74 3f 3b c6 7e 3f
       0.96896464 1.0746257 0.95363855 0.99521226
000020 b0 fa 67 3f 9b ba 7e 3f d3 c1 79 3f 40 d0 75 3f
       0.90616894 0.9950349 0.9756138 0.9602089
000030 19 e1 7f 3f e3 21 6b 3f 95 a5 73 3f 79 25 88 3f
       0.99952847 0.9184858 0.95174533 1.0636436
000040 14 a5 83 3f 4a 64 79 3f 6c 3f 80 3f 06 1e 80 3f
       1.0284753 0.97418654 1.0019355 1.0009162
000050 fd c9 83 3f a7 65 81 3f 18 9f 76 3f bb 7f 83 3f
       1.0296017 1.0109147 0.9633651 1.0273355
000060 9b fd 8d 3f 60 ed 75 3f 32 eb 7e 3f a7 77 78 3f
       1.1093019 0.9606533 0.9957763 0.97057575
000070 04 bf 76 3f 77 47 79 3f 02 52 77 3f 72 d2 7b 3f
       0.96385217 0.9737467 0.9660951 0.9836799

mobilebone.0.1.bias f4 [32]
000000 b8 44 93 bc 2b 04 d8 3c 92 87 4d bd 77 d1 c6 bd
       -0.017977104 0.026369175 -0.050178118 -0.09707921
000010 be ed 93 bd 23 e3 86 3d 4b bb 84 bd 6c b7 8d bc
       -0.0722308 0.06586292 -0.06481036 -0.017299376
000020 df 0e c5 3b 44 70 72 bc fe 95 ac bd e5 66 a9 bd
       0.0060137357 -0.014797274 -0.08427046 -0.08271579
000030 0b 1a 81 bd be 06 f5 bd 3c f2 28 bd 46 5c 59 bc
       -0.063037954 -0.119641766 -0.041246638 -0.013266629
000040 35 ac 05 be 2c ce 7f 3b 57 c8 57 ba dd 4c e3 bc
       -0.13053973 0.00390328 -0.0008231452 -0.027746612
000050 76 8f 59 3c 79 c7 0c be ef 70 fb bc dd 70 c4 bd
       0.013278833 -0.13747968 -0.0306935 -0.095918395
000060 f6 df e3 bd 83 5f a7 3c 42 e8 3d bd 87 25 06 bd
       -0.111267015 0.020431286 -0.046364076 -0.032750633
000070 cf d4 09 bc e8 d3 5c bd f6 0a 38 bd a6 5a 6a 3c
       -0.008412554 -0.053913027 -0.04493233 0.014303839

mobilebone.0.1.running_mean f4 [32]
000000 22 5b cc be 9b 90 11 3f 93 f6 b5 3e 22 13 9f bd
       -0.3991328 0.56861275 0.35539684 -0.07767321
000010 fa 22 94 3e 3d a7 a4 3d 90 0d 3f be 35 c1 a4 3e
       0.28932935 0.08039711 -0.18657517 0.32178655
000020 81 e8 58 bd c6 c0 9b bd 0e 2c 92 3e 46 8f ff 3d
       -0.052956108 -0.07605128 0.28549236 0.12478499
000030 a3 3f cd be c3 61 26 be 1b e4 40 3e 3e 11 a5 be
       -0.40087613 -0.1624823 0.18837015 -0.32239717
000040 6e 39 5b bd 1f 01 f6 bd 42 43 16 3e d7 27 f1 be
       -0.053521566 -0.120119326 0.14674094 -0.47100708
000050 a4 fb 8a be f1 12 b5 3e e2 c3 e4 be 82 59 80 bd
       -0.27145112 0.35366014 -0.44680697 -0.06267072
000060 70 97 c3 bc 1a 8a 88 3e 78 ae 06 bf df 9d f9 3e
       -0.023875922 0.26667863 -0.5260997 0.4875326
000070 95 dd ae 3e 38 7a f9 3c cc 60 38 be 2f 9f 10 be
       0.3415343 0.030453786 -0.18005675 -0.14123224

mobilebone.0.1.running_var f4 [32]
000000 b7 0e 33 3d 9f ca 9a 3d 14 88 00 3d 95 10 d5 3b
       0.043715205 0.07558178 0.031379774 0.006502221
000010 02 80 98 3c b2 71 d7 3b 6f d9 26 3c 8c 33 bc 3c
       0.018615726 0.006574833 0.010183676 0.022973798
000020 3a bc bf 3b 52 92 8a 3b f0 32 a5 3c 86 66 03 3c
       0.005851296 0.0042288685 0.02016589 0.008020049
000030 49 4a fd 3c b4 43 c1 3b 29 b0 f6 3b 65 98 ab 3c
       0.030919211 0.0058979634 0.007528324 0.02094669
000040 6d fd 9b 3b b5 99 22 3c be fe 0d 3c bd a9 53 3d
       0.0047604353 0.009924342 0.008666692 0.051675547
000050 58 de a3 3c 1d b9 27 3d 95 1e 53 3d 83 45 60 3b
       0.020003483 0.040948022 0.051542837 0.003422112
000060 b2 bc 76 3b 55 74 69 3c 8a 5c 83 3d e6 74 5f 3d
       0.0037649092 0.014248927 0.06414135 0.054554842
000070 41 06 cf 3c 17 b8 b1 3b 70 eb 3e 3c 08 da 3f 3c
       0.025271537 0.0054235565 0.011652812 0.011709698

mobilebone.1.0.weight f4 [64, 32, 1, 1]
000000 c2 77 84 3e 89 ef c8 3e 80 d0 a5 be 0e 2c 15 3e
       0.25872618 0.3924525 -0.32385635 0.14567587
000010 51 16 04 3d 89 ef 4a be a3 1d 17 be 90 81 bc be
       0.032247845 -0.19817938 -0.147574 -0.36817598
000020 12 dd 1f be 1c f8 0f 3d 98 fc 3c 3d 29 89 b5 bc
       -0.15611675 0.035148725 0.04613933 -0.02216013
000030 74 32 2e 3d 55 ad e7 3d 92 c8 32 3e ad 8d 9a bc
       0.042528585 0.11312357 0.17459324 -0.018866384
000040 94 38 03 be 5f c3 5e be 6e d9 01 3e 98 98 56 be
       -0.12814552 -0.21754216 0.12680599 -0.20956647
000050 76 d9 68 bd eb d6 10 be 6f a4 c2 be 2f 44 fd bd
       -0.056848012 -0.14144485 -0.38016078 -0.123665206
000060 06 84 f0 bd 00 7b 9a bc bc 36 d1 be 0e 22 a9 bd
       -0.117439315 -0.01885748 -0.40862072 -0.082584485
000070 0e f8 5d 3d 80 75 f8 3e 5d e1 09 3c d3 c1 5d 3e
       0.05419164 0.48527145 0.008415547 0.2165597
000080 9d 79 da bd d6 71 67 be 50 97 4b be a2 cb 99 3d
       -0.10667727 -0.22602019 -0.1988194 0.07509543
000090 3e 79 9d 3e 58 7d cf 3c b2 2e 57 be fb 79 f7 3d
       0.30756563 0.025328323 -0.21013907 0.12083813
0000a0 3a 67 40 3e ed a0 db bd 53 6b cd 3d 8b ff 98 3e
       0.18789378 -0.107240535 0.10030236 0.29882464
0000b0 40 91 e2 3a 8d 26 76 3d a7 6f 99 3e 68 78 b9 3e
       0.001728572 0.06009536 0.29967996 0.36224675
0000c0 e7 30 28 3e a6 23 4d 3b d5 5b 44 3e 90 9e 9b bd
       0.16424905 0.0031301766 0.19175656 -0.07598603
0000d0 b2 83 91 3e 6e 86 50 3e 4d 10 b8 3e 2e 2a b9 3e
       0.28420788 0.20363781 0.35949937 0.36164993
0000e0 44 56 53 3e a8 ea 89 3e 66 19 c5 3e 55 a4 4b be
       0.20638376 0.2693684 0.3849594 -0.19886906
0000f0 5d c1 86 3e d3 5b 0a 3e bb 85 7d 3e 73 5c a3 bd
       0.263194 0.1351159 0.24758045 -0.07976618
000100 7e 64 3f bd 3e b2 f9 bd b1 58 75 be 51 48 94 bd
       -0.046726696 -0.121922 -0.23959614 -0.07240356
000110 f8 7a ee bc cf 79 47 be dd 9e e3 3d 29 cb 90 3e
       -0.02911137 -0.1948006 0.11114285 0.2828
000120 6e 94 23 3e b0 9c e4 bc 7f d8 e6 bd 45 22 61 be
       0.1597459 -0.027906746 -0.11271762 -0.21985729
000130 cd f7 2a 3e 50 3f 1b 3e 1c 4b 2e 3e f7 32 57 3e
       0.16696091 0.1516087 0.1702084 0.21015535
000140 a7 4c 4d 3d 3e 5e 81 bc af c7 fd bd 12 19 e5 bd
       0.05012193 -0.015792008 -0.12391602 -0.111864224
000150 57 9e 18 3d 33 a7 22 bd 2b 45 92 bd f2 35 88 3d
       0.03726038 -0.039710235 -0.07142099 0.06650914
000160 64 55 52 be cb bd 55 be a9 14 5e 3e 4c e3 c2 3d
       -0.20540386 -0.20873182 0.21687569 0.0951601
000170 e4 39 f9 bb 21 29 4e 3e 84 58 99 bc b0 fe 16 bd
       -0.007605778 0.20132877 -0.018718965 -0.036863983
000180 ca 27 8a bc d7 7f 86 bd 53 52 ef bd 78 8f d4 3c
       -0.016864676 -0.06567352 -0.11685624 0.025947317
000190 2a 47 10 be 2e af 6e 3e 49 58 d1 bc 85 a0 7d 3d
       -0.14089647 0.23309013 -0.025554793 0.06192066
0001a0 61 3a 91 3e ce e4 c6 3b d1 a4 a7 3e f5 ce 95 bd
       0.28364852 0.006069756 0.32742932 -0.073148645
0001b0 58 54 bc 3e 22 ea fd 3c 7b b3 08 bd 53 5a 90 3e
       0.367831 0.030995432 -0.03337429 0.28193912
0001c0 1c 82 fd bc d2 fb 15 3e a9 b1 3a bd f0 0b 07 3e
       -0.03094583 0.14646843 -0.045579586 0.13188148
0001d0 f8 04 03 3e 3b d1 a3 3d 66 b2 9f 3d de d3 c9 3d
       0.12794864 0.07998892 0.07797699 0.098548636
0001e0 18 41 a9 3d d3 dc 74 be e4 90 95 3e 91 a3 2f 3e
       0.08264369 -0.23912363 0.29212105 0.1715224
0001f0 25 55 c3 be 3a e9 22 be 92 62 27 bc 73 18 a8 3d
       -0.38150898 -0.15909281 -0.010216372 0.08207788
000200 b0 25 95 bd c7 95 b4 3e 20 f7 e2 bc 9c 74 8d 3e
       -0.07282579 0.3527052 -0.027705729 0.27628028
000210 17 44 43 be cf 8f 55 3e b0 f7 96 3e 37 bc 89 3e
       -0.19068943 0.2085564 0.29485846 0.2690141
000220 0e 78 8f 3c c5 db 50 3e e9 c2 2b be 56 c8 97 3e
       0.017513301 0.20396335 -0.16773571 0.29645032
000230 23 e5 f7 3d ed 24 a5 bd 56 06 86 be 12 54 91 3d
       0.12104251 -0.08063684 -0.2617671 0.07096113
000240 14 af fb 3d 77 b9 fb bd dd 46 88 bd ac 87 cd 3c
       0.12289253 -0.12291234 -0.06654141 0.025089107
000250 0f 0e fb 3d 65 d4 15 3e 75 19 35 be 23 fb cc 3d
       0.12258541 0.14631803 -0.17685492 0.10008838
000260 fa 99 a4 3d 96 a2 25 3e 7c 98 65 bc d4 8e f6 bd
       0.08037181 0.16175303 -0.014013406 -0.12038961
000270 22 fe 9b 3d 36 71 87 be 5f d2 a7 3e 62 30 3f 3e
       0.07616831 -0.2645356 0.32777688 0.186708
000280 56 ed ab 3b 12 28 16 3e 37 43 31 3e 95 5f 09 be
       0.0052467985 0.14663723 0.17310797 -0.13415368
000290 08 fb 83 3d c8 0e 3a 3e 88 65 c3 be 58 09 dc 3d
       0.06444365 0.18169701 -0.381634 0.1074397
0002a0 5a 2f 3d 3c 1b bc 87 3e 86 9b ae bd a3 55 42 bc
       0.011546934 0.265107 -0.085257575 -0.011861238
0002b0 ac dd 1a be 6b 2f c6 be 79 58 3a 3e 49 3f 78 bd
       -0.15123624 -0.38708052 0.18197812 -0.06060723
0002c0 b7 fd 80 bc e5 02 4f be 00 93 6a 3e 07 e5 c6 bc
       -0.01574598 -0.20215948 0.22907639 -0.02427913
0002d0 6b 6e 3c 3e b5 87 e9 bc 4f 9f ef be 5f 03 4e be
       0.18401496 -0.028507093 -0.4680123 -0.20118473
0002e0 eb c3 b2 be 22 46 85 3d b4 ae 77 be 0d 10 a1 bc
       -0.349151 0.065075174 -0.24187738 -0.019660974
0002f0 d5 aa 8f be 5d 58 8a be 7c 37 65 be 52 49 2d 3e
       -0.28060022 -0.2702054 -0.22384447 0.169225
000300 7b 40 41 3e 6a 7e 09 3c d0 5f 8c 3d a3 c0 ae bc
       0.18872254 0.008391956 0.06854212 -0.02133209
000310 3c 35 29 3e af 49 5d 3d f5 78 ee 3d 9f 89 ff 3d
       0.16524214 0.05402535 0.116441645 0.12477421
000320 d8 91 52 3e 72 c1 a6 bd 90 e6 5d 3e 54 7d 3b 3d
       0.20563447 -0.081423655 0.21669984 0.04577382
000330 6f f6 4d be a8 1b b5 3d 14 8c 21 3e 6d 76 32 be
       -0.20113538 0.08843166 0.15776092 -0.17427988
000340 59 f7 0a 3e 64 ab d3 3d 7b 7e cd bd ac ea 54 3c
       0.13570918 0.103354245 -0.1003389 0.012995403
000350 62 6e 65 be c8 d2 ce bd bf e2 83 3e 96 18 5b 3e
       -0.22405389 -0.10098797 0.2575893 0.21396098
000360 6f 78 ba 3d 7d 49 75 be a0 99 0b be bd da d8 bd
       0.09105002 -0.23953815 -0.13632822 -0.10588596
000370 d5 85 0d 3e e8 8d dc 3d c2 83 3e 3c a2 68 b8 bc
       0.13820584 0.10769254 0.011628093 -0.02251083
000380 27 cc c4 bd 3a 5a 65 3d 03 fb 5b 3d 0c 69 b0 3d
       -0.096092515 0.05599425 0.05370618 0.08613786
000390 bf 3e 1a 3e 2f 03 cc bb 69 f9 1d be f1 78 98 bd
       0.15062998 -0.0062259655 -0.15427174 -0.07444943
0003a0 68 5c bb 3d ae 3a 3d be c2 bc ad 3e 55 3c dc 3d
       0.091484845 -0.18479416 0.33933073 0.10753695
0003b0 71 47 64 3d e1 d2 69 be 59 ae e9 bc 19 1f 4d 3e
       0.055732194 -0.2283435 -0.028525518 0.20031394
0003c0 eb 09 f4 bb d7 31 b4 3d 81 45 46 bd 39 50 cf bd
       -0.0074474714 0.08798569 -0.048406128 -0.10122723
0003d0 d6 20 62 3e 6e 25 d1 3e a0 8e 29 3d 31 b7 bb 3d
       0.22082838 0.4084887 0.041395783 0.091658
0003e0 51 34 48 3e c9 d3 97 be d2 b9 5e bc ef 39 23 3c
       0.19551207 -0.29653767 -0.013594108 0.009962543
0003f0 0d 46 81 bc 4d 85 cc 3e e0 6f 7b bc a9 c3 a0 bd
       -0.015780473 0.3994545 -0.015346497 -0.07849819

mobilebone.1.1.weight f4 [64]
000000 c2 6c 85 3f b9 80 85 3f e8 cf 81 3f 62 0a 7c 3f
       1.0423815 1.0429908 1.0141573 0.9845334
000010 3a 9d 80 3f cb e9 85 3f 41 cf 8b 3f 8b 65 8a 3f
       1.0047982 1.0461973 1.0922624 1.0812238
000020 29 3d 84 3f 56 1e 7a 3f fd af 89 3f 37 94 89 3f
       1.0331165 0.9770254 1.0756832 1.0748357
000030 b6 c6 82 3f 92 92 8a 3f 37 71 8d 3f ce 07 73 3f
       1.0216892 1.082598 1.1050175 0.94933784
000040 29 4d 8b 3f 26 70 81 3f 9b 9c 84 3f f4 54 81 3f
       1.0882922 1.011235 1.0360292 1.0104051
000050 8f f6 7b 3f c2 40 89 3f 13 43 82 3f e3 12 87 3f
       0.98423094 1.0722888 1.017672 1.0552639
000060 3e a5 84 3f fc ae 83 3f 22 32 8a 3f 5f 5a 71 3f
       1.0362928 1.0287776 1.0796549 0.9427852
000070 c6 ba 89 3f 1e 1b 74 3f 7c 96 83 3f 4b 42 8d 3f
       1.0760124 0.9535388 1.0280299 1.1035856
000080 e7 9a 89 3f 31 76 82 3f 66 fa 89 3f e7 66 7b 3f
       1.0750397 1.0192319 1.077954 0.9820389
000090 4e 74 86 3f 05 dc 87 3f c6 42 80 3f 7c 6b 85 3f
       1.0504243 1.061402 1.0020378 1.0423427
0000a0 21 e3 87 3f 0e 4d 88 3f f7 5f 8a 3f 9a ba 88 3f
       1.0616189 1.0648515 1.0810536 1.0681946
0000b0 07 3f 89 3f cb ce 84 3f ac f5 81 3f f6 60 8a 3f
       1.072236 1.0375608 1.0153098 1.081084
0000c0 5a dd 86 3f 13 e7 7f 3f 25 94 7b 3f f9 5d 89 3f
       1.0536301 0.99961966 0.98272926 1.0731803
0000d0 8f b3 8a 3f 46 5b 81 3f f9 5e 84 3f 83 fb 80 3f
       1.0836047 1.010598 1.0341483 1.0076755
0000e0 d2 91 7c 3f 42 1c 84 3f 3c 57 7a 3f 9a 6b 85 3f
       0.98660004 1.0321124 0.9778936 1.0423462
0000f0 24 b3 88 3f ca c5 87 3f 6b 9f 81 3f 50 60 84 3f
       1.0679669 1.0607235 1.0126776 1.0341892

mobilebone.1.1.bias f4 [64]
000000 3a 53 8f 3d 22 e3 f9 3c bd 54 d9 3c 4b 04 bd ba
       0.06998296 0.030503813 0.026529664 -0.0014420835
000010 1b 7b d1 3c 57 b0 81 3d 0f b9 7d bc c4 e7 68 bd
       0.025571397 0.06332462 -0.015486016 -0.056861654
000020 d6 4d 5f 3d fa 0c 87 bd f8 b3 c8 3d 73 30 b2 3d
       0.05451759 -0.06594272 0.09799951 0.08700647
000030 ef 8e 65 3c c2 a0 77 3d 9c 60 f9 bc e4 10 f1 bc
       0.014011129 0.060456045 -0.030441575 -0.029427
000040 43 d9 d5 bc f4 4d f5 3c 89 47 a6 bd 79 c6 fb bc
       -0.026104575 0.029944398 -0.08119113 -0.030734288
000050 84 08 71 bc 09 b1 a2 3d 70 82 ec 3c c3 cc bb 3c
       -0.014711503 0.07943923 0.028870791 0.022924786
000060 bd 99 61 bd a7 66 06 bd 28 65 3e bd c9 83 90 bd
       -0.055078257 -0.03281274 -0.04648319 -0.07056386
000070 d3 f0 ac 3d 1c 53 1d bd af 11 92 3b fd 33 d5 bc
       0.08444371 -0.038409337 0.0044576745 -0.026025767
000080 60 03 47 bd 51 5e 59 3d e1 37 a3 3d 9b ee 0e bb
       -0.048587203 0.053068463 0.079696424 -0.00218097
000090 3c 5b 9a 3d da e8 a4 3d fd af 56 bd 8c e9 64 3d
       0.07536933 0.080522254 -0.05241393 0.05588679
0000a0 ad 9b 96 3d eb 0f 1c bd b3 0d f3 bc ae d8 9d 3d
       0.073539115 -0.038101118 -0.029669618 0.07707344
0000b0 35 5e d5 3d e3 bd 12 3d ad a7 b8 bc 25 87 de 3d
       0.10418359 0.03582562 -0.022540892 0.108656205
0000c0 9a b1 87 3d 1d 44 7d 3d 97 c6 25 bd 9e e8 b1 3d
       0.06625672 0.061832536 -0.040472593 0.08686946
0000d0 27 b3 c4 bc 49 6d 03 3d c7 60 69 bc ac a8 6c bc
       -0.024011208 0.032086644 -0.014244265 -0.014444511
0000e0 a7 33 52 bd ec 3f 75 bd 99 46 27 bd 0a b8 49 bd
       -0.05131879 -0.059875414 -0.04083881 -0.04924778
0000f0 c8 0e b0 3d 81 d3 9c 3d 23 d7 91 3d 28 6d 0d 3d
       0.08596569 0.07657529 0.07121112 0.034527928

mobilebone.1.1.running_mean f4 [64]
000000 ef 5b c6 be 94 69 b7 3f ed 84 95 bc 5a fb 27 3f
       -0.38742015 1.4329095 -0.01825186 0.6561791
000010 cb 26 44 3f ec 2f 16 bf 91 2f b4 3e cd 99 e6 3e
       0.76621693 -0.5866687 0.3519254 0.45039216
000020 00 e9 6e be d5 a5 18 3f 96 ae 1b bf 08 cb 33 bf
       -0.2333107 0.5962804 -0.6081327 -0.70231676
000030 ab e9 52 3d ad 36 df bd 72 c0 ed 3e 81 5c 8b 3e
       0.051492374 -0.108991005 0.46435887 0.27219012
000040 31 7e 71 3d bc ee 6c bd b9 81 e7 3d aa dc a9 3e
       0.058958236 -0.057844862 0.113040395 0.33176166
000050 a1 d2 0f 3f 08 24 2b bf e0 fe be 3e a2 99 3d 3f
       0.5618077 -0.66851854 0.3730383 0.7406255
000060 a5 2f 7c 3e 61 97 8e 3e 34 8f 14 3f b8 ee b7 3e
       0.2462755 0.27849868 0.5803101 0.35924315
000070 fe 53 2b bf 3b 25 8c be bb dd 70 3f 16 9b 10 3f
       -0.66925037 -0.27372155 0.94088334 0.5648664
000080 08 d1 f9 3e 87 79 a5 be 9a 48 98 be 83 20 fd 3e
       0.4879229 -0.3231928 -0.2974289 0.49438867
000090 c9 35 25 bf 50 1d 1a bf 95 2f 51 3e 24 3d 79 bd
       -0.64535195 -0.6020098 0.20428307 -0.060849324
0000a0 00 6e f0 be b1 b6 0e 3e d6 98 a5 3e 18 79 77 be
       -0.46958923 0.13936879 0.32343167 -0.24167287
0000b0 35 90 e3 be eb 37 59 be 4f e4 e1 3e 6a a8 29 bf
       -0.4444596 -0.21212737 0.44119498 -0.66272604
0000c0 f7 09 11 bf ce f5 3a bf c3 56 18 3f 50 0c 92 be
       -0.5665583 -0.7303132 0.5950739 -0.2852502
0000d0 4e 10 df 3e 0a 67 3e be f2 34 cc 3e 0c 2b 00 3f
       0.43567127 -0.18593994 0.39884144 0.50065684
0000e0 da 07 fa 3e c5 a8 00 3e 29 ca 13 3f 6b e8 09 3f
       0.48834115 0.1256438 0.57730347 0.53870267
0000f0 72 e2 4e bf c5 f7 46 bf a8 bf 0d bf 89 8c c6 be
       -0.8081428 -0.77721816 -0.5537057 -0.38779095

mobilebone.1.1.running_var f4 [64]
000000 ef f5 77 3e 41 2b 31 3f 77 f2 c9 3e 22 77 83 3f
       0.2421491 0.69206625 0.39442798 1.0270731
000010 a4 a3 9c 3e 98 20 a2 3f bf 6c cf 3d 2e e6 8e 3e
       0.30593598 1.2666197 0.101281635 0.27909988
000020 e1 f1 fd 3e fc 3c 37 3e 2c b2 79 3e 52 2e 3f 3e
       0.495986 0.17894357 0.24384373 0.18670014
000030 f4 67 1c 3e 61 1e 28 3e 50 3d 4d 3e 99 48 6b 3f
       0.1527403 0.16417839 0.2004292 0.9190765
000040 21 1b 2d 3e 1f 0e 8e 3f e6 3d bb 3d 36 64 02 3e
       0.1690488 1.109806 0.091426656 0.1273354
000050 4f 48 c5 3e a9 01 2c 3e 9d ce 5c 3e 05 a6 a8 3e
       0.3853173 0.16797508 0.21563192 0.32939163
000060 14 97 56 3e 2a 85 b3 3e 71 64 9f 3e d8 8c 07 3e
       0.20956069 0.35062534 0.31131318 0.13237321
000070 1c 77 4e 3e b0 73 25 3f eb 21 db 3e f5 6d 86 3e
       0.20162624 0.6462965 0.42799315 0.26255766
000080 80 8b a2 3e 4b 62 5c 3e e8 83 bf 3d a7 92 67 3e
       0.31747055 0.21521871 0.09351331 0.22614537
000090 d4 47 60 3e 46 83 bd 3e d3 dc c4 3e d6 8c 0c 3e
       0.219024 0.37014216 0.38449726 0.137256
0000a0 68 c7 21 3e 67 62 50 3e d8 bd a7 3e 0b 86 76 3d
       0.15798724 0.20350038 0.32762027 0.060186427
0000b0 45 6d 12 3e e9 cf 0c 3e 38 eb 38 3e fa 51 2e 3e
       0.14299496 0.13751186 0.18058479 0.17023459
0000c0 5b 54 54 3e 33 2c ec 3e ae ab e4 3e 98 45 06 3e
       0.20735304 0.4612747 0.4466223 0.13112485
0000d0 53 ec 73 3e 8a 05 61 3f 0b 76 9e 3e b1 8b b4 3e
       0.2382062 0.87899077 0.30949435 0.35262826
0000e0 c0 02 f4 3d 7d 1e 49 3e 94 0f 83 3e 4a fd 3f 3e
       0.11914587 0.19640537 0.25597823 0.18748966
0000f0 d5 90 21 3f ff c0 3e 3f 20 a1 03 3f 39 23 0a 3e
       0.6311162 0.7451324 0.5141773 0.13489999

fc.weight f4 [2, 64]
000000 0f 70 93 bd 24 9c f6 3d c2 56 5e bd 99 a2 28 bd
       -0.07199108 0.120415 -0.054281957 -0.04117069
000010 09 54 83 3d 11 d2 13 3c aa 64 53 3e 8c 2f e6 3d
       0.06412513 0.009022252 0.20643869 0.112395376
000020 95 9c 22 bb b1 28 9a 3c 6a c1 86 bd 52 75 68 bc
       -0.0024812568 0.018818231 -0.065798596 -0.014188128
000030 72 e7 89 bd c5 62 07 be 71 8f 92 3d 2b 6d 59 bc
       -0.06733598 -0.13221271 0.071562655 -0.013270657
000040 65 32 90 3d be ec 17 bd a2 9d 1e 3e 43 6d 0d 3d
       0.07040862 -0.03709101 0.1548982 0.03452803
000050 47 3f af 3d e4 66 f1 bc c4 69 f9 bd 65 f7 29 3e
       0.08556991 -0.029468007 -0.12178376 0.1659828
000060 bd d4 e3 3d 0c 74 30 ba 99 6e 1a 3e a9 06 ad bd
       0.11124561 -0.00067311595 0.15081252 -0.08448536
000070 54 fe 35 bd 00 ee e5 bd 50 09 22 3e 2a a2 9b 3d
       -0.044432 -0.112270355 0.15823865 0.0759929
000080 de 6d 4a 3e 87 ab e4 bd df 53 01 bd 13 ee 42 bd
       0.19768474 -0.11165529 -0.031574126 -0.047590327
000090 d9 3a c1 bd 45 ed 0e be 5c 40 b9 3d f3 6c 12 be
       -0.094350524 -0.13957699 0.09045479 -0.14299373
0000a0 a8 96 ee bd 27 78 b7 bc 40 a1 ba 3d 60 3f 1e be
       -0.11649829 -0.02239616 0.09112787 -0.15453863
0000b0 17 30 e6 bd 6a 80 48 bd 11 5e 09 3e 5a 15 04 be
       -0.11239641 -0.04895059 0.1341479 -0.1289877
0000c0 6c 14 8c bd 35 a2 e7 bd 2e 46 b4 3c f4 84 e0 bd
       -0.06839833 -0.113102354 0.02200612 -0.10962859
0000d0 50 2b 22 3e 60 40 09 be c6 92 d3 3c c3 72 ef 3d
       0.15836835 -0.13403463 0.025826823 0.11691811
0000e0 35 5b 42 3d 2c be 05 3e 3b c6 c0 3d ec 53 da 3d
       0.047450263 0.13060826 0.094128095 0.10660538
0000f0 e8 52 35 bd f5 44 35 bd b9 5f 56 bd 03 82 0b bd
       -0.04426852 -0.044255216 -0.052337382 -0.034059536
000100 94 27 2c 3e b4 b1 76 bc f7 1f db 3c ac 35 cb 3c
       0.16811973 -0.015057016 0.02674864 0.024805866
000110 97 44 33 bd bc 10 07 3e 4b 93 40 be 89 f7 f6 bd
       -0.043766584 0.13189977 -0.18806188 -0.12058932
000120 d6 56 cd 3d 98 d1 00 bd ef f9 9e 3d c9 a4 26 3e
       0.10026328 -0.031449884 0.07762515 0.16273798
000130 87 3b 03 3e 8f c4 2b 3e c1 69 44 be be 77 35 bb
       0.12815677 0.167742 -0.19180967 -0.002768978
000140 e1 8f 49 be 36 ac 0a 3d 30 3d f4 3a 19 b8 be bd
       -0.19683792 0.03385564 0.0018633958 -0.093124576
000150 ed 79 2f 3c 90 40 2f 3e f0 c3 99 3d 7a e1 55 bc
       0.010710222 0.17114472 0.07508075 -0.013054246
000160 be a8 15 bd ae 9f 0e be c4 e5 22 bd cd 0f ba bd
       -0.03653788 -0.139281 -0.039769903 -0.09085045
000170 51 cc 10 3e ec b6 a6 bd e0 f4 9a 3d fa f2 01 be
       0.1414044 -0.08140358 0.075662374 -0.12690344
000180 da 66 48 be 80 91 d9 3b b1 75 38 3e 31 3e da bd
       -0.19570485 0.0066396594 0.18013646 -0.10656393
000190 dd 80 0c 3d 42 3b 2a 3e d3 5e ec bd 6c c5 5d 3c
       0.03430258 0.16624168 -0.11541524 0.013535839
0001a0 d4 ab e6 3c 6d 26 31 be f2 0f 3d be 96 a7 1c 3e
       0.028158106 -0.17299815 -0.18463114 0.15298304
0001b0 f3 88 02 3d da 25 37 3d d0 53 53 3d 80 db 9e 3d
       0.031868886 0.044713832 0.0515936 0.0775671
0001c0 ac 8a 3f 3d fb 6f 36 bd 80 fc d3 bd 00 26 f4 3d
       0.046763107 -0.044540387 -0.10350895 0.119213104
0001d0 0b ae c2 bd ff d0 4d bc ba d3 05 be cd 39 bf bd
       -0.09505852 -0.012562036 -0.13069049 -0.093371965
0001e0 e5 17 dd bc 7c 67 06 bd a3 8c ac bd f5 8e 7d bd
       -0.026988933 -0.032813534 -0.08425262 -0.061903913
0001f0 c3 af da 3d f4 66 3c 3e 7e 83 77 3d 0b 0e 04 3e
       0.10678055 0.18398649 0.060428135 0.12895982

fc.bias f4 [2]
000000 22 9a 8f 3d 4d 19 e4 3d
       0.070118204 0.11137638
